weights/rupr_not_clustered_syn/checkpoint-79950/pytorch_model.bin (torch, 738091 bytes, 1 tensors)

transformer.wte.prompt_provider.weights f4 [120, 1536]
000000 62 63 d1 c0 6f 6e 5b c0 69 b8 9e c1 92 f5 28 41
       -6.5433817 -3.4286153 -19.840044 10.559954
000010 22 7e e4 bf 07 3e c7 41 7d f4 0b 41 9a 21 48 40
       -1.7850993 24.905287 8.7471895 3.1270509
000020 d1 2d 3d 41 80 8a 87 c1 59 00 96 c0 d5 e0 7e c1
       11.823686 -16.942627 -4.6875424 -15.929891
000030 36 c7 10 41 ba 52 72 41 4b 63 1b 41 7c 31 6d 41
       9.0486355 15.145197 9.711741 14.824581
000040 8d 78 f3 41 af af c7 c1 4d 00 1f c1 5a b8 f5 3e
       30.433863 -24.960783 -9.937573 0.47992212
000050 8c 79 e1 41 3d dc dc c0 cb 8f 57 c1 5a 6f be 41
       28.18435 -6.9018846 -13.472606 23.80437
000060 cd 00 41 c1 c0 55 e1 41 94 f2 bb 3f b3 d4 2a c0
       -12.0626955 28.16687 1.4683404 -2.6692321
000070 a1 ee 5e c0 7a a4 5f 41 db a9 b2 41 c7 42 86 3f
       -3.4833148 13.977655 22.332937 1.0489129
000080 b5 e3 f0 40 89 89 69 c0 31 02 cb 40 7b b4 48 40
       7.5277963 -3.6490195 6.3440175 3.1360157
000090 47 b0 c8 41 93 b8 c9 c0 58 75 cc 3f f9 11 6f c0
       25.086073 -6.303781 1.597331 -3.735472
0000a0 ea 43 b5 40 49 c8 2f 40 ce 17 20 41 81 dc 4c 41
       5.6645403 2.7465994 10.005812 12.803834
0000b0 99 12 a5 40 36 0a 0d c2 18 80 a4 c0 7b de 15 40
       5.15852 -35.25997 -5.1406364 2.3417041
0000c0 9f 4e 3b 40 f9 a2 4d c0 f8 36 59 bf 2d 7f 95 c1
       2.9266737 -3.213072 -0.848495 -18.687098
0000d0 ac 8c 0e 42 6b 28 a7 40 0a 2c 85 41 e7 7e d8 40
       35.637375 5.223684 16.646503 6.765491
0000e0 08 ef a2 40 fe 7a 0d c0 ac 3e a0 40 56 aa 7b c1
       5.0916786 -2.2106318 5.0076504 -15.729086
0000f0 1f 0d 9f c1 3d 6e 87 40 ae d5 8d 41 28 2a 15 40
       -19.881407 4.232207 17.729336 2.330698
000100 9e 55 81 bf 11 c0 1d c1 97 9a e3 c0 54 09 26 41
       -1.0104253 -9.859391 -7.112621 10.377277
000110 9b 3a 9a c1 3b 86 44 c2 da 36 11 c1 0b c7 6b c1
       -19.278616 -49.131084 -9.0758915 -14.736094
000120 4a ce 79 c1 e6 83 b2 c0 89 7a 63 41 56 a8 71 40
       -15.612864 -5.578601 14.217416 3.7758994
000130 fe 37 6c c0 f8 3e c8 c0 5f 89 cc c1 85 b0 e1 c1
       -3.6909175 -6.2576866 -25.567076 -28.211191
000140 34 9a d2 c0 8a e2 89 c1 3d 63 84 c1 f0 8f 8a c1
       -6.5813236 -17.235615 -16.548456 -17.320282
000150 f3 da e8 c1 5d e1 39 c1 76 ee 4d 41 c7 b6 91 41
       -29.106909 -11.61752 12.870718 18.214247
000160 eb 2a 92 c1 10 a1 bb 41 0f ff 6a 41 fe db 7e 40
       -18.270956 23.453644 14.68727 3.9821773
000170 0f 8a 58 40 c8 81 2a 41 78 e5 8c c0 a6 f9 e5 c1
       3.3834264 10.656685 -4.4030113 -28.746899
000180 73 73 83 c1 1a 5c 66 c0 d6 c4 12 41 35 9f e7 c1
       -16.431372 -3.5993714 9.173056 -28.952738
000190 7c c4 bc c1 12 69 c5 bf 15 eb 09 c0 8e 96 1e c1
       -23.59594 -1.542269 -2.1549733 -9.9117565
0001a0 6a f7 0f 40 82 56 f8 41 9c b0 19 c1 7b 4a 6e 40
       2.249476 31.04224 -9.605618 3.723296
0001b0 fb ac 76 41 71 f2 20 c1 e8 43 b3 3f 7d 55 be c1
       15.417232 -10.05919 1.4005098 -23.791742
0001c0 6f 63 2d 41 f4 5f 01 42 b4 88 7a 40 2d ab 81 41
       10.836776 32.343704 3.9145937 16.208582
0001d0 dd d4 69 c0 82 1a e4 c0 d3 36 2c c1 67 9c 0e c2
       -3.6536171 -7.128236 -10.763385 -35.652737
0001e0 0e 92 42 c1 01 55 8c 3e 8b 76 39 41 46 9e 07 c0
       -12.160658 0.27408603 11.591441 -2.1190352
0001f0 3a cb ed 3f a3 4f a2 c1 8a e9 1c c0 b3 58 56 41
       1.8577645 -20.288885 -2.451754 13.396655
000200 36 4d fb c0 81 56 19 41 73 88 4f 41 27 1d e9 bf
       -7.853175 9.583619 12.970813 -1.8212022
000210 83 3a 06 42 74 be dc 40 4d 7d 40 c1 19 98 85 c1
       33.55714 6.8982487 -12.030591 -16.699266
000220 3a e8 a2 40 5d 9a 1b c1 e5 00 bf 40 91 b7 01 bf
       5.090848 -9.725186 5.968859 -0.50670725
000230 34 66 29 40 ea 6a 61 c0 62 bf f7 40 7d 17 70 be
       2.646863 -3.5221505 7.742112 -0.2344646
000240 0b 38 63 c1 ed 12 9d c1 a3 79 b8 c1 bb 68 23 41
       -14.201182 -19.634241 -23.059393 10.213069
000250 ab 75 a0 41 31 c3 84 c1 23 0d 7d 40 f2 ca d9 40
       20.057455 -16.595308 3.9539268 6.8060236
000260 a3 85 de 40 ac da 4a 41 41 5d e0 3d 6a 3f 6b c1
       6.953813 12.678387 0.10955287 -14.702982
000270 5a 7a 81 41 4c a9 9c 41 64 48 e6 c0 a4 5b 10 c1
       16.184742 19.582664 -7.1963367 -9.022373
000280 df 70 61 c1 82 8a 14 41 0e bf a6 40 ea d4 d0 41
       -14.090056 9.283815 5.210822 26.103962
000290 71 0d e0 3f a0 a4 73 bf c0 f7 97 c1 b4 ca ab c0
       1.7504102 -0.9517307 -18.995972 -5.368494
0002a0 dd 88 7a 40 c8 3a 5d 40 17 78 9b c1 6c 91 e3 bf
       3.9146035 3.4567127 -19.433638 -1.7778754
0002b0 79 7a 78 c1 6e cd a1 41 10 38 18 c1 22 4f c9 3e
       -15.529901 20.225307 -9.513687 0.39318186
0002c0 e7 62 93 40 64 6f 24 41 85 96 d8 c0 c9 64 05 41
       4.605823 10.277195 -6.768374 8.337106
0002d0 22 6e 93 40 9c 96 b4 c1 0c fb d9 40 0a 4c 81 40
       4.607194 -22.57354 6.8118954 4.040532
0002e0 f1 9c ba c0 ee 01 03 41 96 4d ba 41 95 11 46 41
       -5.831658 8.187971 23.287884 12.3792925
0002f0 80 1a 0f bf f2 28 d7 3f 78 9b 91 c0 89 dd 85 41
       -0.5589981 1.680937 -4.550228 16.733171
000300 d7 f2 80 41 f9 95 7d c1 2f 9c 8c c0 33 61 fc 41
       16.118574 -15.849114 -4.3940654 31.54746
000310 a5 0b 05 42 d6 41 90 c0 0e 6e 7c 41 3f 2f f6 3f
       33.26137 -4.5080366 15.776869 1.9233168
000320 3f 10 2a 40 55 c7 0e 42 93 19 7e 41 48 b5 92 c1
       2.6572416 35.69466 15.881244 -18.338516
000330 fc 92 b2 c1 b9 4c 8d c0 bc d3 33 c1 84 84 00 c1
       -22.32177 -4.4156156 -11.239193 -8.032352
000340 fe 62 f4 40 91 c5 33 3f 8d d3 6e 41 31 52 8e c1
       7.637084 0.7022334 14.926648 -17.790133
000350 8f 5c 0b bf 1f 7e a4 41 d2 be cb c0 2a fb a1 bf
       -0.5443811 20.561583 -6.3670435 -1.2654774
000360 b6 72 09 40 9b 44 d7 3f 86 35 34 c1 4d 52 1b c0
       2.1476264 1.6817812 -11.263067 -2.4268982
000370 47 a3 62 bf ad fd 82 40 7d 32 a3 c1 30 df a8 41
       -0.8853039 4.0934663 -20.399652 21.108978
000380 51 84 b0 41 fa 7a b0 c1 35 2e d7 c1 15 e4 df bf
       22.064608 -22.060047 -26.897562 -1.749148
000390 45 c3 0d 3f 53 73 e2 c0 64 a5 02 c1 03 c2 8b c0
       0.5537608 -7.0765777 -8.165379 -4.367433
0003a0 be 46 df c0 66 f3 f5 c0 c4 30 ec 41 d6 8d 2f 41
       -6.9773855 -7.6859617 29.523811 10.972128
0003b0 e1 c4 44 3f 21 8e 85 41 2a 53 6d c1 ad 6a 15 c1
       0.76862913 16.694399 -14.832804 -9.338544
0003c0 00 ab bd c1 55 ba 2f 42 85 26 db 41 0b 39 99 c0
       -23.708496 43.931965 27.393808 -4.7882133
0003d0 24 9a 8d c1 b0 6a 12 40 0c 08 ce 41 87 67 8e 41
       -17.700264 2.2877617 25.75393 17.80055
0003e0 2a 8d 9c 41 4e 39 8b 41 fd 04 d9 41 f3 84 ff 40
       19.568928 17.40298 27.127436 7.984979
0003f0 72 2d a9 c1 cc 38 a3 c0 23 a0 cc c1 ac e1 89 41
       -21.14719 -5.100683 -25.578192 17.235191
