weights/rupr_cl_gsd_dbscan__results/checkpoint-9000/pytorch_model.bin (torch, 738091 bytes, 1 tensors)

transformer.wte.prompt_provider.weights f4 [120, 1536]
0	0xbff5acec	-1.9193397
1	0x3fb8f0d1	1.4448491
2	0x3f576e3b	0.84152573
3	0x3e6374fb	0.22212593
4	0xbd34a911	-0.044106547
5	0xbd3326e7	-0.043738272
6	0x402e3e36	2.722547
7	0x3f6c863d	0.9239233
8	0xbfe4e9eb	-1.7883886
9	0xc08aabfb	-4.3334937
10	0x405f5740	3.4897003
11	0xbe9e21b4	-0.30885088
12	0x4084d49d	4.150954
13	0x40b5a4d6	5.6763716
14	0x3f79143a	0.9729649
15	0xbe88d008	-0.26721215
16	0x403b9aa3	2.9313133
17	0xc0c36f75	-6.1073556
18	0x3f9a29e5	1.2044035
19	0xbfb4f0a6	-1.413594
20	0x40aa6621	5.324967
21	0x3e6fe0ea	0.23425642
22	0x3ed87737	0.42278454
23	0x3f851c84	1.0399327
24	0xc0ca8568	-6.328785
25	0xbfe84ae0	-1.814785
26	0x3fc1d55d	1.5143238
27	0xbeefa031	-0.46801904
28	0xbf870bf1	-1.0550519
29	0x4053f38a	3.3117394
30	0x40cb428c	6.3518734
31	0xbff07d58	-1.8788252
32	0x3f35ca5e	0.7101191
33	0x3eef5ff9	0.4675291
34	0x4074caa1	3.8248675
35	0xbfc946c1	-1.5724717
36	0x402e5759	2.7240813
37	0x3f7dd30e	0.9915017
38	0xc093a711	-4.614144
39	0xbedfb226	-0.43690604
40	0x3ffd96ea	1.981168
41	0x3e65db0d	0.22446842
42	0x3fc54bcc	1.5413756
43	0x3eaffa33	0.34370574
44	0xbf5b41fb	-0.85647553
45	0xc05d990b	-3.462466
46	0xbfaed5a4	-1.3658948
47	0x3dfcc815	0.1234285
48	0xbdd025f5	-0.1016349
49	0xc02c3058	-2.6904507
50	0xbe89b928	-0.26899076
51	0xbf718d0d	-0.9435585
52	0x40a55b4d	5.167395
53	0xbf492dfb	-0.78585786
54	0x408d57c6	4.4169645
55	0x3efa625e	0.48903173
56	0xbc3c5528	-0.011494912
57	0x40707019	3.756842
58	0xc034c87e	-2.824737
59	0xbf9cd726	-1.2253158
60	0xbf17b91e	-0.5926684
61	0x3f8571bb	1.0425333
62	0x3fc77d71	1.5585157
63	0x3ff4d9ec	1.9129004
64	0xbe466f76	-0.19378456
65	0xc035deec	-2.841731
66	0x3f88f4b0	1.0699673
67	0x3ff12ac6	1.8841178
68	0xbe343c06	-0.17601022
69	0x3f4905fa	0.78524745
70	0xbfe5e4b1	-1.7960416
71	0xbfd2ac05	-1.6458746
72	0xbf196486	-0.5991901
73	0x407894cd	3.884082
74	0x402f0c5b	2.735129
75	0xc008029d	-2.1251595
76	0xc059e827	-3.4047945
77	0xc00cf0f8	-2.2022076
78	0xbf5d7479	-0.8650585
79	0xc065f366	-3.5929809
80	0x3fe606bf	1.7970809
81	0xc04e0d3a	-3.2195573
82	0xbf96ce9a	-1.17818
83	0xbfb1132d	-1.3833977
84	0x3e184fa2	0.14874128
85	0xc04849cb	-3.129504
86	0x40d6bec2	6.710786
87	0x40199eab	2.4003093
88	0xc047b3cb	-3.1203487
89	0x40935cea	4.605092
90	0xbf9f68a2	-1.2453806
91	0x3fd46282	1.6592562
92	0x408203e0	4.062973
93	0x400cb0cc	2.1982908
94	0x403889be	2.883407
95	0xc0642273	-3.5646026
96	0xbfac2fe2	-1.3452113
97	0xbeafe1fd	-0.34352103
98	0x3fc4b107	1.5366524
99	0xc03de1cf	-2.9669073
100	0x4044fab7	3.0778024
101	0x3f88ced4	1.0688119
102	0xc04d5dc1	-3.2088473
103	0xbf29e12b	-0.66359204
104	0x3ffa26db	1.9543108
105	0xbe648fb0	-0.22320437
106	0x3f8a5b8e	1.080919
107	0xc04110c6	-3.0166488
108	0x3f72768c	0.9471214
109	0x3e73dd0a	0.23814788
110	0x3f37e4ec	0.7183368
111	0xbf073975	-0.5282205
112	0x3fd38480	1.6524811
113	0x40213e95	2.5194447
114	0xbf9de5d5	-1.2335764
115	0xbf67d033	-0.9055206
116	0x405591c9	3.337023
117	0x3fd1232f	1.6338862
118	0xc08b0e89	-4.3455243
119	0xc047d894	-3.1225939
120	0xc0869dd6	-4.206767
121	0x3fbbaeb6	1.4662693
122	0xc015c7c2	-2.3403172
123	0x3eb056b7	0.34441158
124	0x404e59a8	3.2242222
125	0xc0a1dc34	-5.0581303
126	0xc00d5bfa	-2.2087388
127	0x3ede0083	0.43359765
128	0xc0b12448	-5.535679
129	0x40d00163	6.5001693
130	0xc015452a	-2.3323464
131	0xc054b892	-3.3237653
132	0xbfce3488	-1.6109781
133	0x3f3b5faf	0.73192877
134	0xc0533903	-3.3003547
135	0xc0922487	-4.566959
136	0x4035a4eb	2.8381908
137	0xbf80054a	-1.0001614
138	0x40408cce	3.008594
139	0xbf54c3bd	-0.8311117
140	0xc0026eb3	-2.0380065
141	0xc015f536	-2.3430915
142	0xbfe8925e	-1.8169668
143	0x408be898	4.372143
144	0x3e809349	0.2511237
145	0xc0894443	-4.2895827
146	0xbf9c2cf1	-1.2201215
147	0xbff00653	-1.875193
148	0x40191ce2	2.3923879
149	0xc0b3e1d4	-5.621317
150	0xc014cc2f	-2.3249624
151	0xbed4c28f	-0.41554686
152	0x4034818e	2.8204074
153	0x4023a05c	2.5566626
154	0x4045b209	3.0889914
155	0xc0557d52	-3.335774
156	0xbfac43e8	-1.3458223
157	0xbe32421e	-0.17408034
158	0xc0646ec2	-3.5692601
159	0xc00977c6	-2.1479354
160	0x3e886081	0.26636127
161	0x4088a5b5	4.270228
162	0xbdbc1f98	-0.091857135
163	0x3fa5a634	1.2941346
164	0xbd407a1f	-0.046991464
165	0xc02c69f8	-2.6939678
166	0xc04279eb	-3.0386913
167	0x400a4b68	2.1608524
168	0xbe366494	-0.17811805
169	0x406a30b2	3.6592221
170	0xbfbed48a	-1.4908612
171	0xc031587e	-2.7710261
172	0x3faa34dc	1.3297381
173	0x40ca377d	6.3192735
174	0xc05df54e	-3.4680972
175	0xbffc7da9	-1.9725848
176	0xbf0d70da	-0.5525032
177	0xbf0daea4	-0.55344605
178	0x3f08a88c	0.5338218
179	0xbf645b0e	-0.8920144
180	0xbe7336d8	-0.2375139
181	0xbd521297	-0.05128726
182	0x3fce9e64	1.6142087
183	0xc0492818	-3.1430721
184	0xbfe187a1	-1.7619516
185	0x3d8be0af	0.06829964
186	0x3f7c91ba	0.9865986
187	0x3f20ef0d	0.6286476
188	0xc0aaaf29	-5.333882
189	0x401ce111	2.451237
190	0xc045bf07	-3.0897844
191	0x3f393e44	0.72360635
192	0x4025ec8f	2.5925634
193	0x3f8b825b	1.0899156
194	0xbfff5da8	-1.9950457
195	0x40b659b0	5.698448
196	0x3fd97885	1.6989905
197	0x4043bb1f	3.058296
198	0x3fbffc50	1.4998875
199	0xc03d77fa	-2.9604478
200	0xbf870976	-1.0549762
201	0x3eefce2e	0.4683699
202	0xc019de4f	-2.4041936
203	0x3f1dee18	0.6169143
204	0xc0177e63	-2.367089
205	0xbff17e9b	-1.8866762
206	0x405c91d9	3.4464018
207	0xc02a31bf	-2.6592863
208	0xbe4d9294	-0.20075446
209	0xbfc25df3	-1.5184921
210	0xbf007d53	-0.5019123
211	0x3fffec17	1.9993924
212	0xbeec92b7	-0.46205685
213	0xbfb774b5	-1.4332491
214	0x40033f06	2.0507216
215	0xbf3b0f38	-0.73070097
216	0xbee5f6a1	-0.44914725
217	0x3f04ca4a	0.5187117
218	0x3f213089	0.62964684
219	0x409c2a0e	4.8801336
220	0xbfdd956f	-1.7311229
221	0x4000c40c	2.0119658
222	0xbe6cb890	-0.2311728
223	0x40088b60	2.1335068
224	0x3fb6be9d	1.427692
225	0xc013d3bc	-2.3097982
226	0xc068e8fc	-3.6392202
227	0xbf373e18	-0.7157912
228	0x40b62647	5.6921725
229	0xbf1f885a	-0.6231743
230	0xbfb00f7b	-1.3754724
231	0x3f72cc6e	0.94843185
232	0xc01551c9	-2.3331168
233	0x3e890a4c	0.26765668
234	0x40b934e5	5.787707
235	0xc082f444	-4.0923176
236	0x3eeb8e99	0.4600723
237	0x4031e497	2.779577
238	0x3f6efc7d	0.93354017
239	0xbe137d57	-0.14403282
240	0xc01e9bd9	-2.4782622
241	0x40469599	3.1028807
242	0x40c376ec	6.108267
243	0xbfc62764	-1.5480771
244	0xbf88a7c0	-1.0676193
245	0x3f60b92f	0.8778257
246	0x4029213c	2.6426535
247	0x3ecf11bd	0.4044322
248	0x40552069	3.3301032
249	0x4081da49	4.057896
250	0x40715cd7	3.7712915
251	0xbf32a9c0	-0.6979027
252	0xbf15846e	-0.58405197
253	0xbf6343a3	-0.8877508
254	0x3dc12e3a	0.09432645
255	0x40518b06	3.2741103
