weights/rupr_cl_gsd_dbscan__results/checkpoint-10000/pytorch_model.bin (torch, 738091 bytes, 1 tensors)

transformer.wte.prompt_provider.weights f4 [120, 1536]
0	0xc014c3bf	-2.3244474
1	0x3fbf6620	1.4953041
2	0x3f3d8ed6	0.74046075
3	0x3ea339e1	0.31880096
4	0xbccaa6b2	-0.02473769
5	0x3e76963c	0.24080747
6	0x402244c9	2.5354483
7	0x3f94655b	1.1593431
8	0xbfdcba6f	-1.7244395
9	0xc08ca76f	-4.3954387
10	0x404afe33	3.171765
11	0xbe72550c	-0.23665255
12	0x4085f4ba	4.186124
13	0x40bbc1bb	5.8673987
14	0x3f820c9d	1.0160099
15	0xbedc1afc	-0.42989337
16	0x403cc80c	2.94971
17	0xc0c79123	-6.236467
18	0x3f988731	1.1916257
19	0xbfae9331	-1.3638669
20	0x40ada964	5.4269276
21	0x3e3749cb	0.17899244
22	0x3e9b7e2c	0.303697
23	0x3f917225	1.1362959
24	0xc0c5373e	-6.1629934
25	0xbfe68a80	-1.8011017
26	0x3fc73962	1.5564387
27	0xbeff811f	-0.499032
28	0xbf89d947	-1.0769433
29	0x40540623	3.3128746
30	0x40c6e4dc	6.215437
31	0xbff67ab5	-1.9256197
32	0x3f4db5db	0.80355614
33	0x3f042aaf	0.5162763
34	0x406547ec	3.5825148
35	0xbfc403fc	-1.5313716
36	0x403ad3b8	2.9191723
37	0x3fa7134c	1.3052764
38	0xc096c072	-4.710992
39	0xbf054670	-0.52060604
40	0x3fe2f09c	1.7729678
41	0x3e68c7d2	0.22732475
42	0x3fb4c160	1.4121513
43	0x3e81935d	0.25307742
44	0xbf70e3ef	-0.940978
45	0xc05db417	-3.4641168
46	0xbfa82164	-1.313519
47	0x3df83273	0.121189974
48	0xbe800043	-0.250002
49	0xc01c65e9	-2.44372
50	0xbe428392	-0.18995503
51	0xbf77905d	-0.96704656
52	0x40a919bd	5.284392
53	0xbf5cf065	-0.8630431
54	0x408d686c	4.418997
55	0x3f0dbbff	0.55364984
56	0x3d166c68	0.036724478
57	0x40801656	4.0027266
58	0xc02fa2cb	-2.744311
59	0xbf8e132e	-1.1099603
60	0xbf1a88a2	-0.60364735
61	0x3f790916	0.9727949
62	0x3fac7acd	1.3474976
63	0x3fc4238a	1.5323346
64	0xbe496807	-0.1966859
65	0xc039bcd5	-2.9021504
66	0x3f9b8a16	1.2151515
67	0x40004458	2.0041714
68	0xbe442b66	-0.1915718
69	0x3f058744	0.52159524
70	0xbfc861ec	-1.5654883
71	0xbfd6470a	-1.6740429
72	0xbf2f4c58	-0.68475866
73	0x407b9e19	3.9315245
74	0x403ce982	2.9517522
75	0xc0007bd2	-2.0075574
76	0xc06b30df	-3.6748579
77	0xc009525b	-2.1456516
78	0xbf6a6484	-0.91559625
79	0xc05cadc7	-3.4481065
80	0x3fd417ef	1.6569804
81	0xc05a1342	-3.4074254
82	0xbf9b7cb3	-1.214743
83	0xbfc36f9a	-1.5268433
84	0x3ee871c7	0.45399305
85	0xc0476f09	-3.116152
86	0x40d6bdf5	6.710688
87	0x40026271	2.0372584
88	0xc047b331	-3.120312
89	0x40921809	4.565434
90	0xbf8e756f	-1.1129588
91	0x3fe1d367	1.764264
92	0x4085af9b	4.177686
93	0x40089aa2	2.134438
94	0x403de66b	2.9671886
95	0xc0616b57	-3.5221765
96	0xbfb7db0f	-1.4363726
97	0xbe893755	-0.26800027
98	0x3fc50c82	1.5394442
99	0xc03da006	-2.962892
100	0x404a4dd3	3.161
101	0x3fb5423c	1.4160838
102	0xc047f35e	-3.124229
103	0xbf0b1f83	-0.5434496
104	0x3ff0556c	1.8776069
105	0xbec94b3a	-0.39315206
106	0x3f51826d	0.8183964
107	0xc04829eb	-3.1275585
108	0x3f6cde9c	0.92527175
109	0x3eb99f41	0.36254314
110	0x3f44d4d0	0.76887226
111	0xbf377926	-0.7166923
112	0x3fd2df04	1.6474309
113	0x401f154f	2.4856756
114	0xbfa0dbf7	-1.2567128
115	0xbf806bf7	-1.0032948
116	0x406060d4	3.50591
117	0x3feb3165	1.8374449
118	0xc08dd10d	-4.431769
119	0xc0664680	-3.598053
120	0xc084ed54	-4.1539707
121	0x3fd8392a	1.6892445
122	0xc004f6ba	-2.077559
123	0x3eac7e00	0.3368988
124	0x405bc53f	3.433914
125	0xc0a30a26	-5.094989
126	0xc00f33fa	-2.2375474
127	0x3ed0ca53	0.4077936
128	0xc0b17ec5	-5.546725
129	0x40c73f8e	6.226508
130	0xc007c5fe	-2.1214595
131	0xc05c4440	-3.4416656
132	0xbfd2ec99	-1.6478454
133	0x3f21d28d	0.632119
134	0xc06b09b4	-3.6724672
135	0xc090dd08	-4.5269814
136	0x402d2472	2.7053494
137	0xbf97bdec	-1.1854835
138	0x404db864	3.2143793
139	0xbf080484	-0.5313189
140	0xc008ab3f	-2.135452
141	0xc01789d8	-2.3677883
142	0xbfe101ae	-1.7578638
143	0x40859023	4.173845
144	0x3ed9088e	0.4238934
145	0xc08b5e5f	-4.35527
146	0xbfa1a041	-1.2627031
147	0xbfe5ddbc	-1.7958293
148	0x4014d598	2.3255367
149	0xc0b4242f	-5.629417
150	0xc00ddfbb	-2.2167804
151	0xbee2de83	-0.44310388
152	0x4030e428	2.7639256
153	0x402a75a3	2.66343
154	0x40429ef9	3.040953
155	0xc058dd51	-3.388508
156	0xbfa892a1	-1.3169748
157	0xbcd123bb	-0.025529733
158	0xc05ab33d	-3.4171898
159	0xc012ab78	-2.2917156
160	0x3d6196ae	0.05507534
161	0x4085fe8d	4.187323
162	0xbd569c94	-0.05239542
163	0x3fabe83f	1.3430251
164	0xbe84c46c	-0.25931108
165	0xc02bc1a9	-2.683695
166	0xc03cc848	-2.9497242
167	0x40065a13	2.0992477
168	0xbee054ee	-0.43814796
169	0x406c887a	3.6958299
170	0xbfb1c5da	-1.3888505
171	0xc037f135	-2.874097
172	0x3fb8f0ce	1.4448488
173	0x40c92725	6.2860284
174	0xc061bf72	-3.52731
175	0xbfec40a5	-1.8457228
176	0xbf17aa7c	-0.59244514
177	0xbf0bf47f	-0.54669946
178	0x3f315049	0.6926313
179	0xbf631efa	-0.8871914
180	0xbe8ae61b	-0.27128682
181	0xbe0483b6	-0.12940869
182	0x3fc7e5fd	1.5617062
183	0xc04fa196	-3.2442374
184	0xbfca287d	-1.5793606
185	0x3ebe3de3	0.3715659
186	0x3f81f10a	1.0151684
187	0x3f1c538a	0.6106497
188	0xc0a46dee	-5.138419
189	0x40232f99	2.5497801
190	0xc04d87a3	-3.2114036
191	0x3f3824e5	0.71931297
192	0x402e9c31	2.7282832
193	0x3f675c88	0.90375566
194	0xc005a597	-2.0882318
195	0x40ba4e2a	5.8220415
196	0x3fbdcfc6	1.4829032
197	0x402f0f29	2.7353003
198	0x3fb69529	1.426427
199	0xc040f483	-3.0149238
200	0xbf934f57	-1.1508588
201	0x3d5623c1	0.05228019
202	0xc02429c5	-2.5650494
203	0x3f327688	0.69712114
204	0xc004b7ad	-2.0737107
205	0xc0049caa	-2.072062
206	0x405b548f	3.427036
207	0xc0205f20	-2.505806
208	0xbe51b91c	-0.2048077
209	0xbfbbd375	-1.4673907
210	0xbf27cab3	-0.6554367
211	0x4000b3f9	2.0109847
212	0xbf09e571	-0.53865725
213	0xbf986f8a	-1.1909039
214	0x4003e683	2.0609443
215	0xbf5a11e1	-0.8518353
216	0xbea001fd	-0.31251517
217	0x3f19f334	0.60136724
218	0x3f2f4c27	0.68475574
219	0x40999c79	4.8003507
220	0xbfd70351	-1.6797887
221	0x400dd09c	2.2158575
222	0xbe02abfb	-0.12760918
223	0x3ff5d229	1.9204761
224	0x3fbea80d	1.4895035
225	0xc0137993	-2.3042953
226	0xc066500b	-3.5986354
227	0xbf4fb5a9	-0.81136566
228	0x40b0a4e4	5.5201283
229	0xbf19377d	-0.59850293
230	0xbfb8a7cb	-1.4426206
231	0x3f9571cd	1.1675354
232	0xc00f5d59	-2.2400725
233	0x3e7cb462	0.24678186
234	0x40b74a5c	5.727827
235	0xc083deea	-4.120961
236	0x3ed7f470	0.4217868
237	0x403bf85e	2.9370341
238	0x3f84de40	1.0380325
239	0xbea76e1e	-0.327012
240	0xc022f025	-2.5459073
241	0x40493007	3.1435564
242	0x40c28981	6.079285
243	0xbfd41dff	-1.6571654
244	0xbf91a762	-1.1379206
245	0x3f6dc0ed	0.92872506
246	0x402ec68e	2.7308688
247	0x3ef3676b	0.4753984
248	0x405c5ced	3.4431717
249	0x4083b7c9	4.1161847
250	0x407cb275	3.9483922
251	0xbf557e1f	-0.8339557
252	0xbee1e9c1	-0.44123653
253	0xbf51da5b	-0.8197381
254	0xbd6b76e8	-0.057486445
255	0x404ed47e	3.2317195
