weights/rupr_cl_taiga_dbscan__results/checkpoint-9000/pytorch_model.bin (torch, 738091 bytes, 1 tensors)

transformer.wte.prompt_provider.weights f4 [120, 1536]
0	0xc0ba8798	-5.829052
1	0x40e97d61	7.296555
2	0xc0a3a8ef	-5.114372
3	0x402adeab	2.6698406
4	0x3f1b565e	0.6067866
5	0x403365fd	2.8030999
6	0x4097140b	4.7211967
7	0x407f6d5e	3.9910502
8	0xc0b7cb97	-5.7436023
9	0xc0b52ab7	-5.661464
10	0x3f95bc1b	1.169803
11	0x3f50a798	0.8150573
12	0x409de167	4.933765
13	0x418f00a5	17.875315
14	0x3fc0ad64	1.5052915
15	0xbf2a9b26	-0.6664299
16	0x40f2e018	7.589855
17	0xc0ff1792	-7.971627
18	0x407ef05a	3.98342
19	0xc05e18d0	-3.4702644
20	0x417e790c	15.904552
21	0x40a480a2	5.1407022
22	0xc0ccf430	-6.404808
23	0x40874ae7	4.2278934
24	0xc17bac64	-15.729588
25	0xc081e07a	-4.058652
26	0xbe67e393	-0.22645406
27	0x3fc7417c	1.5566859
28	0xc0745a85	-3.8180249
29	0x40dd4440	6.9145813
30	0x41109e06	9.03858
31	0xc0fa1dc1	-7.816132
32	0xbf468d1a	-0.77559054
33	0x404ad3b7	3.169172
34	0x408142cd	4.0394044
35	0x408ccaba	4.399747
36	0x3fad6c8d	1.3548752
37	0x3f253288	0.6453023
38	0xc1302464	-11.008884
39	0xc0b7f0de	-5.7481527
40	0x4094c7c6	4.6493864
41	0x40a5f2bf	5.185882
42	0x40c1d6f5	6.05749
43	0x4017d7d3	2.3725479
44	0xc084f60b	-4.1550345
45	0xc0d41b28	-6.628315
46	0x3fbde29b	1.483478
47	0x4080362a	4.006612
48	0x3f57e631	0.8433562
49	0xc1097aad	-8.59245
50	0x400863fe	2.131103
51	0xc0530bbd	-3.2975914
52	0x41461d9b	12.382228
53	0xbf713338	-0.9421878
54	0x41162e2c	9.386272
55	0x3ef834d9	0.4847782
56	0xc0ed7935	-7.421046
57	0x413ad59a	11.677149
58	0xbe5ddfda	-0.21667424
59	0x3fe32c4c	1.7747893
60	0xbfd5485a	-1.6662705
61	0x4065224b	3.580218
62	0x40e08541	7.0162663
63	0x4110d329	9.051553
64	0xbd969ab8	-0.07353729
65	0xc0d4b45a	-6.6470156
66	0xbf60421e	-0.87600887
67	0xc05565e1	-3.3343432
68	0xbe8dfd61	-0.27732375
69	0xc0a91cd2	-5.284768
70	0xc04fc445	-3.2463543
71	0xc089796a	-4.296071
72	0xc00a7011	-2.16309
73	0x40eb0e3b	7.345487
74	0x4102ef60	8.183441
75	0xbfbf82c6	-1.4961784
76	0xc0fb5a32	-7.85476
77	0xbfb8b190	-1.4429188
78	0xbee821be	-0.45338243
79	0xc0eb10ae	-7.345786
80	0x40843b5b	4.1322455
81	0xc0dcf80b	-6.9052787
82	0xc07f9c66	-3.9939208
83	0xc0512e78	-3.2684612
84	0x401e4d99	2.4734862
85	0xc02576ca	-2.5853753
86	0x40d4abaa	6.645955
87	0x40a8a4a4	5.2700977
88	0xc11b16af	-9.693038
89	0x415638c0	13.388855
90	0x401cc5a3	2.4495628
91	0x400d28fd	2.2056267
92	0x41453836	12.326223
93	0x404c80f8	3.1953716
94	0x40575564	3.3645868
95	0xc1167034	-9.402393
96	0xc0f2ae82	-7.583802
97	0xc040eb47	-3.0143602
98	0x3f3a57ae	0.7279004
99	0xc117b0ec	-9.480694
100	0x3fe34790	1.7756214
101	0x3f7f3135	0.9968446
102	0xc12308ee	-10.18968
103	0xc08f29ef	-4.473869
104	0x3fae0653	1.359568
105	0x3fe02972	1.7512648
106	0x40295dc4	2.646348
107	0xc11b7fe0	-9.7187195
108	0x3f944805	1.1584479
109	0xbdf2752d	-0.11838756
110	0x40b3d0e0	5.6192474
111	0xc07c628d	-3.943515
112	0x411cb897	9.795066
113	0x41052d9f	8.323638
114	0x40647073	3.5693634
115	0xc10d5ab9	-8.834649
116	0x407dde57	3.9666955
117	0x40a51578	5.1588707
118	0xc151e35b	-13.118007
119	0xc0f6a1d6	-7.7072554
120	0xc09d2beb	-4.911611
121	0x40acb81f	5.3974757
122	0xbf0989af	-0.53725713
123	0xc04ad1c7	-3.1690538
124	0x40a80c23	5.2514815
125	0xc12b3b40	-10.701965
126	0xbf7f697e	-0.99770343
127	0x3ec90b68	0.39266515
128	0xc110906a	-9.035257
129	0x40e80c2b	7.2514853
130	0xbfd3a36a	-1.6534245
131	0xc03599b4	-2.8375063
132	0x3f625ab4	0.8841965
133	0x4115c1be	9.3598
134	0xc0eeb1fa	-7.4592257
135	0xc1333095	-11.199361
136	0x3d3ce949	0.046120916
137	0xc08ed617	-4.463634
138	0x410d98db	8.849818
139	0x408a6245	4.324496
140	0xc0bd969d	-5.9246354
141	0xc08457d2	-4.1357203
142	0x3e708c04	0.23490912
143	0x40f49e23	7.644304
144	0xbefb87e8	-0.49127126
145	0xc1194357	-9.57894
146	0xc115c35b	-9.360194
147	0x400298eb	2.0405834
148	0x3ff7d314	1.9361291
149	0xc168ae17	-14.542502
150	0xc0bd83cc	-5.9223385
151	0xbdb23bdb	-0.08702823
152	0x403ccdad	2.9500535
153	0x40e55783	7.1669326
154	0x40169ea2	2.3534322
155	0xc1588c86	-13.5343075
156	0xc0ae6344	-5.4496174
157	0x3fd8d0a3	1.6938671
158	0xc100fe2a	-8.062052
159	0xc124d749	-10.30256
160	0xbff4a409	-1.911256
161	0x3f763fc6	0.9619106
162	0xc086d2f2	-4.21325
163	0x3e347eed	0.17626543
164	0xc05592e4	-3.3370905
165	0xc0d50c81	-6.6577764
166	0xc11becf6	-9.745352
167	0x3fcc291d	1.5950047
168	0x408ac745	4.336825
169	0x40ddf219	6.935803
170	0xc0c24407	-6.070804
171	0xc10749fa	-8.455561
172	0x4094a17f	4.644714
173	0x41112f88	9.074104
174	0xc12524e0	-10.321503
175	0xc12b2356	-10.696127
176	0xc09002a2	-4.5003214
177	0xbe7d9a85	-0.24765976
178	0x3f4ba408	0.79547167
179	0x3fa55a55	1.2918192
180	0xbef46724	-0.4773494
181	0x409f479d	4.977492
182	0xc0f4b8be	-7.6475515
183	0xc0aaad55	-5.3336587
184	0xc04a4520	-3.160469
185	0xc00909a5	-2.1412137
186	0xc01de950	-2.4673653
187	0x40841e64	4.12871
188	0xc0a28b6d	-5.0795197
189	0x40d8dd9f	6.7770534
190	0xc108fefa	-8.56225
191	0x40a122ce	5.0354986
192	0x4101e70c	8.118908
193	0x3f868347	1.0508813
194	0x4023efcb	2.5615108
195	0x414ad761	12.677583
196	0x4053afc0	3.307602
197	0xbff9a0a8	-1.9502153
198	0xc031c9d5	-2.7779438
199	0xc026fec3	-2.6092994
200	0x3fd4bb5e	1.661968
201	0x3fa5ba49	1.2947475
202	0xc10c26e9	-8.7595
203	0x40eb121b	7.34596
204	0xc0ce5461	-6.4478
205	0xc09d953c	-4.924467
206	0x40a3452e	5.102195
207	0xc07d57af	-3.9584768
208	0xbe965dda	-0.29368478
209	0xc026c310	-2.6056557
210	0x40432456	3.0490928
211	0x40cc49fa	6.3840303
212	0xc0984e71	-4.7595754
213	0xc0d74e80	-6.7283325
214	0x3fe408a3	1.7815136
215	0x3f877f6f	1.0585765
216	0x3fbcc808	1.4748545
217	0xbf8c9a0a	-1.0984509
218	0x404d4e19	3.2078917
219	0x414a9ba9	12.663003
220	0x40536bd1	3.3034556
221	0x41273934	10.451466
222	0xc0a07240	-5.0139465
223	0x41037499	8.215966
224	0x409edf39	4.964749
225	0xc136c5ed	-11.423322
226	0xc167d0c2	-14.488466
227	0xc09d94eb	-4.9244285
228	0x40f9b253	7.803018
229	0xbfdf72c2	-1.7456896
230	0xc0c2657c	-6.074888
231	0x40502c9c	3.2527227
232	0xc01c42cc	-2.441577
233	0x408e6567	4.449878
234	0x41269013	10.410174
235	0xc11430bb	-9.261897
236	0xbfcf684c	-1.6203704
237	0x4111c79b	9.111232
238	0xc018cf3f	-2.3876493
239	0xc0bdab20	-5.9271393
240	0xc100a009	-8.039071
241	0x4148ac21	12.542024
242	0x417ced77	15.807975
243	0xbbc41601	-0.0059840684
244	0xbfb3a228	-1.4033861
245	0x40895d8e	4.2926702
246	0x40fa1810	7.8154373
247	0xbc630da6	-0.0138582345
248	0x3f9c98c6	1.2234123
249	0x40c3deb9	6.120938
250	0x41174759	9.454919
251	0xbf321c8f	-0.69574827
252	0xbffd71dd	-1.9800373
253	0xc0ac5047	-5.3847995
254	0xbebe3187	-0.3714716
255	0x406c0a09	3.6881125
