weights/rupr_not_clustered_syn/checkpoint-80850/pytorch_model.bin (torch, 738091 bytes, 1 tensors)

transformer.wte.prompt_provider.weights f4 [120, 1536]
000000 1d 51 c7 c0 5b a8 70 c0 ae 3d 9f c1 c2 7e 29 41
       -6.2286515 -3.7602756 -19.905117 10.593447
000010 0c 97 fc bf b3 55 c6 41 4f 26 11 41 c5 f7 60 40
       -1.9733596 24.791845 9.071853 3.5151227
000020 0d 2e 3b 41 8b 1b 89 c1 c5 49 96 c0 8c 0b 7f c1
       11.698743 -17.138449 -4.696505 -15.940319
000030 67 19 1c 41 54 5e 77 41 ba 2c 12 41 84 6f 6d 41
       9.756202 15.460529 9.13592 14.8397255
000040 c0 50 f5 41 fa 69 c9 c1 4b c7 09 c1 8c 63 81 be
       30.664429 -25.176746 -8.6111555 -0.2527126
000050 f0 52 e3 41 66 6b f0 c0 d2 eb 5c c1 06 bb c1 41
       28.415497 -7.51311 -13.807573 24.21632
000060 5c 4e 48 c1 72 69 db 41 e9 15 6e 3f 84 cb 2d c0
       -12.519131 27.426487 0.9300218 -2.7155466
000070 cb 8f 53 c0 28 b1 59 41 47 38 b0 41 59 0e af 3f
       -3.3056514 13.605751 22.02748 1.3676254
000080 e2 f6 f4 40 08 82 59 c0 30 11 dc 40 e8 9b 6b 40
       7.655137 -3.3985615 6.877098 3.6813908
000090 f4 72 c6 41 33 3a ba c0 db 42 c2 3f 99 4b 83 c0
       24.80613 -5.8196044 1.5176653 -4.102978
0000a0 b8 ff c7 40 03 cb de 3f 86 e5 1c 41 36 13 40 41
       6.2499657 1.7405704 9.806036 12.00469
0000b0 10 ad b2 40 92 b1 0e c2 45 f7 87 c0 1d dd 16 40
       5.583626 -35.67341 -4.2489343 2.3572457
0000c0 9c 6d 2c 40 aa f9 33 c0 eb a7 84 bf 00 c1 9a c1
       2.69419 -2.8121133 -1.0363744 -19.344238
0000d0 12 1f 10 42 80 76 ac 40 f8 89 8f 41 a2 31 b2 40
       36.030342 5.3894653 17.942368 5.5685587
0000e0 3e 88 8d 40 50 d3 d1 bf 69 8e a1 40 ac d4 6a c1
       4.422881 -1.6392612 5.048634 -14.676922
0000f0 65 12 a3 c1 b4 05 8a 40 df 5a 8d 41 68 ef 11 40
       -20.383982 4.313196 17.66937 2.2802372
000100 6c cf c2 bf 76 69 1d c1 ae 35 fd c0 93 d1 27 41
       -1.521955 -9.838247 -7.9128027 10.488666
000110 34 f4 9b c1 f5 71 45 c2 44 f1 05 c1 b0 58 72 c1
       -19.49424 -49.361286 -8.371403 -15.146652
000120 2a 7b 77 c1 4b 4c b9 c0 a8 ce 62 41 c4 d7 54 40
       -15.467569 -5.790563 14.175453 3.3256693
000130 5a 84 7b c0 46 be ce c0 dc e7 c8 c1 a8 07 db c1
       -3.929953 -6.4607267 -25.113213 -27.378738
000140 be cd cf c0 ff 9f 85 c1 c3 5f 80 c1 31 4e 88 c1
       -6.493865 -16.703123 -16.046759 -17.03818
000150 6c 9c e7 c1 90 20 38 c1 5a bd 53 41 5d b7 90 41
       -28.951378 -11.50795 13.233728 18.089533
000160 a3 99 92 c1 66 ed b7 41 14 b0 65 41 f8 a5 89 40
       -18.325018 22.990917 14.355488 4.30151
000170 06 b5 53 40 1a 42 31 41 1e fe 97 c0 6e a7 e6 c1
       3.3079238 11.078638 -4.74977 -28.831753
000180 b3 1e 80 c1 c2 a1 87 c0 bb ce 18 41 87 53 e6 c1
       -16.01499 -4.238496 9.550471 -28.790785
000190 3b 73 b3 c1 55 44 f3 bf 55 21 fe bf 83 46 27 c1
       -22.431265 -1.9005228 -1.9853922 -10.454715
0001a0 f6 15 39 40 10 ae fc 41 ce ec 15 c1 81 18 84 40
       2.8919654 31.584991 -9.370314 4.127991
0001b0 0a dd 6a 41 c2 7e 2f c1 6b 30 f2 3f 38 84 bc c1
       14.678965 -10.968447 1.8921026 -23.56456
0001c0 f9 31 20 41 23 bd ff 41 08 4f 9c 40 0a ac 84 41
       10.0122 31.967352 4.8846474 16.584003
0001d0 c2 6d 61 c0 19 61 f6 c0 b1 aa 3e c1 09 44 0f c2
       -3.522324 -7.6993527 -11.916673 -35.81644
0001e0 ae 31 49 c1 d2 7a ac be e3 bc 39 41 cf 18 0d c0
       -12.574629 -0.33687454 11.608615 -2.2046392
0001f0 42 da 95 3f e0 a2 a0 c1 2d c9 4a c0 ce b2 61 41
       1.1707232 -20.079529 -3.1685288 14.1061535
000200 51 09 04 c1 b2 25 17 41 64 e7 50 41 05 d2 08 c0
       -8.2522745 9.446703 13.056492 -2.1378186
000210 11 fb 03 42 09 8d f5 40 94 0b 30 c1 94 9f 8c c1
       32.995182 7.673466 -11.002827 -17.577919
000220 f5 20 a8 40 15 20 1d c1 69 2d ba 40 8c 4e 80 bf
       5.254023 -9.820333 5.818043 -1.0023971
000230 be 75 57 40 6c e6 19 c0 c7 2d 01 41 bf 89 ac bc
       3.3665614 -2.4046888 8.073676 -0.021061776
000240 69 35 52 c1 38 e7 9a c1 40 a2 bc c1 e1 d7 18 41
       -13.13804 -19.3629 -23.579224 9.552705
000250 80 d9 a3 41 2c 37 87 c1 56 04 80 40 a2 66 e8 40
       20.481201 -16.90194 4.0005293 7.2625284
000260 9d 48 d2 40 76 1a 4a 41 d1 64 7a be 1a c0 67 c1
       6.571364 12.63146 -0.24452521 -14.4844
000270 a1 54 80 41 12 05 9d 41 7d 6f ed c0 3b 7c 16 c1
       16.041323 19.627476 -7.4198594 -9.40533
000280 8f 5f 62 c1 11 a7 15 41 44 6e aa 40 8b 5f ce 41
       -14.14833 9.353288 5.32596 25.796652
000290 79 82 fc 3f ff 51 9c bf 4d f7 95 c1 97 5d a2 c0
       1.9727317 -1.2212523 -18.745752 -5.0739245
0002a0 70 33 88 40 69 9c 55 40 31 a9 9b c1 81 a4 16 c0
       4.256279 3.3376715 -19.457613 -2.3537905
0002b0 b7 23 84 c1 c1 97 9d 41 9d aa 13 c1 65 4f 09 bf
       -16.517439 19.699099 -9.229154 -0.5363677
0002c0 eb 21 a4 40 d8 c1 2d 41 de 41 e6 c0 cb cc 02 41
       5.1291404 10.859825 -7.1955404 8.174998
0002d0 ac 27 9c 40 ee ca b6 c1 b9 84 d4 40 3c 36 95 40
       4.8798428 -22.849087 6.6412015 4.6628704
0002e0 45 e1 b8 c0 2e f5 07 41 eb 31 bf 41 3b 93 4d 41
       -5.7774987 8.497358 23.899374 12.848445
0002f0 14 ac fa be b5 dc 10 40 95 bd 93 c0 a3 dd 88 41
       -0.4895941 2.263471 -4.6168923 17.108221
000300 7e 09 7e 41 90 8e 81 c1 73 4a 8b c0 00 c1 fd 41
       15.877317 -16.19461 -4.352838 31.719238
000310 60 1a 03 42 8c f7 98 c0 01 18 74 41 16 74 b4 3f
       32.775757 -4.780218 15.25586 1.4097927
000320 40 93 47 40 3e bb 0f 42 44 9d 76 41 6c ab 8f c1
       3.1183624 35.932854 15.413395 -17.958702
000330 89 9e b1 c1 6a 33 84 c0 92 20 1e c1 95 91 f7 c0
       -22.20241 -4.131276 -9.882952 -7.7365212
000340 98 7e f6 40 a0 7f 5c 3f a8 7b 7a 41 cd 3f 8e c1
       7.7029533 0.8613224 15.6551895 -17.781153
000350 ae 85 1c bf e6 3e a0 41 c6 30 b9 c0 01 31 37 bf
       -0.6114148 20.030712 -5.787204 -0.7155915
000360 b9 5d db 3f 83 24 a2 3f 0b cc 33 c1 ff 97 15 c0
       1.7137977 1.2667392 -11.237315 -2.337402
000370 54 33 11 bf 33 4b 87 40 1a 23 a0 c1 1f e2 a4 41
       -0.56718946 4.2279296 -20.01714 20.61041
000380 f1 8c b0 41 bb a6 b2 c1 22 da db c1 56 61 28 c0
       22.068819 -22.331411 -27.48151 -2.630941
000390 b6 d0 97 3f 40 22 dc c0 97 fa 07 c1 c4 de a9 c0
       1.1860569 -6.879181 -8.498679 -5.308443
0003a0 50 d6 eb c0 90 6c 02 c1 01 85 f0 41 e5 c3 2c 41
       -7.369911 -8.1515045 30.064943 10.797826
0003b0 66 e5 ae 3f 31 4f 82 41 55 3d 69 c1 d2 15 0b c1
       1.3663757 16.288668 -14.577474 -8.692827
0003c0 59 51 c1 c1 f4 63 2f 42 91 f8 d6 41 92 db 99 c0
       -24.16472 43.84761 26.87137 -4.808053
0003d0 30 94 8f c1 6f 7a de 3f fe 0c cc 41 10 1a 8d 41
       -17.947357 1.7381114 25.506344 17.637726
0003e0 ef 3d 9c 41 d2 10 8d 41 ae 9e da 41 1c 42 f7 40
       19.530241 17.633213 27.32748 7.72682
0003f0 e9 93 ae c1 d3 07 9a c0 76 7c c9 c1 a5 a3 8c 41
       -21.822222 -4.813455 -25.185772 17.579905
