weights/rupr_cl_taiga_dbscan__results/checkpoint-15000/pytorch_model.bin (torch, 738091 bytes, 1 tensors)

transformer.wte.prompt_provider.weights f4 [120, 1536]
000000 11 e8 ce c0 ab 22 9d 40 a4 23 a1 c0 38 81 83 40
       -6.4658284 4.910482 -5.0356007 4.109524
000010 1a 05 a2 be 0b f7 73 40 a4 40 ee 3f ef 50 a8 40
       -0.31644517 3.8119533 1.8613477 5.2598796
000020 12 be 45 c0 8b 3c fd c0 de 83 5f 3f c4 dc c5 3f
       -3.089726 -7.9136405 0.8731059 1.5457997
000030 f5 7b 97 40 c7 7d 92 41 c0 05 e2 3f e0 c7 86 3f
       4.7338815 18.311415 1.7658005 1.0529747
000040 ea 96 fd 40 9f 84 fa c0 cf 85 a9 40 be ee 97 c0
       7.924672 -7.828689 5.297584 -4.7478933
000050 1f 48 51 41 bf 18 bf 40 ce 06 0b c1 87 10 39 40
       13.080108 5.971771 -8.689161 2.8916337
000060 5b 22 67 c1 89 d9 c5 c0 46 52 ed 3f 45 89 1e 40
       -14.445888 -6.1828046 1.8540733 2.4771283
000070 0f b5 a5 c0 18 fe fb 40 32 11 03 41 21 21 13 c1
       -5.178352 7.8747673 8.191698 -9.195588
000080 19 39 ca be 56 b2 21 40 20 d9 17 40 c0 4a fb 40
       -0.39496687 2.5265098 2.3726273 7.8528748
000090 65 bb a2 3f 5a a1 40 3f 40 e5 43 c1 84 53 c0 c0
       1.2713438 0.752462 -12.243469 -6.010195
0000a0 8f 5d 9d 40 97 aa 53 40 82 56 d2 40 af 96 bd 40
       4.9176707 3.307287 6.57306 5.924644
0000b0 bc fa 84 c0 d7 75 08 c1 44 58 d3 3e 91 9d 1d 40
       -4.155607 -8.5287695 0.4127828 2.462742
0000c0 56 2f 41 3f 48 95 12 c1 53 56 b2 3f 8c c8 81 c0
       0.75462854 -9.161446 1.3932594 -4.055731
0000d0 ec 7a 41 41 4f 0a f5 bf 6c 2a 1c 41 21 1b d9 3d
       12.09251 -1.9143771 9.760357 0.106008776
0000e0 d4 b8 fe c0 0d 3b 37 41 0a 42 97 bf df 93 5d 40
       -7.960062 11.451917 -1.1817029 3.4621503
0000f0 76 d9 1c c0 29 e9 50 40 df e3 10 41 cd cb ef 40
       -2.4507728 3.264231 9.055633 7.493628
000100 ea 24 ba be 66 32 00 c1 8b 21 55 bf f3 91 b8 bf
       -0.36356288 -8.012304 -0.8325431 -1.441954
000110 b1 53 89 bf b8 42 b5 c0 21 c4 3f c0 ed 4a b4 c0
       -1.0728666 -5.6643944 -2.9963458 -5.634146
000120 82 07 83 c0 4a 08 ec 40 72 6c b4 40 c3 07 da 3e
       -4.0946665 7.376012 5.638238 0.42584047
000130 8a 29 01 c1 54 b5 83 bf 69 62 97 bf 85 15 06 c1
       -8.072641 -1.0289712 -1.1826907 -8.380254
000140 ae 05 6c 40 31 a6 08 c1 28 68 00 c0 86 ae 54 c0
       3.6878467 -8.540574 -2.0063572 -3.323152
000150 1d 9e c3 3f 66 5b 32 c0 6d ff b6 40 92 4b dd 3f
       1.5282627 -2.7868285 5.71868 1.7288687
000160 12 cc 1c c1 53 07 55 41 3e 7c ce 3f b4 c2 01 40
       -9.799822 13.314288 1.6131666 2.0275087
000170 89 3a 5d 41 2f 1f 50 40 a5 e8 67 40 df 7c 0c c1
       13.826791 3.2519033 3.6235745 -8.780486
000180 d7 15 da c0 e7 95 25 c0 bb 24 ed 3f 24 ac e0 c0
       -6.815166 -2.5872743 1.8526834 -7.0210133
000190 60 8f 73 3f 6c a2 19 3f 88 23 27 c1 7a ba 97 c0
       0.9514065 0.6001346 -10.446175 -4.7415133
0001a0 45 05 c0 3f f0 a4 31 40 17 9a 04 40 7d 74 10 c1
       1.5001608 2.775692 2.071905 -9.0284395
0001b0 6a 0f 71 3f c6 c7 27 c0 f0 28 d5 40 e3 21 7f c0
       0.94164145 -2.6215682 6.6612473 -3.9864433
0001c0 15 3c 33 41 03 12 2e 41 e7 9f 87 40 f9 a1 27 c1
       11.202168 10.879397 4.2382693 -10.477044
0001d0 85 1d 64 40 aa e0 b0 40 21 c9 4d c1 7c 73 08 c1
       3.5643017 5.527425 -12.861604 -8.528194
0001e0 4b 28 c2 c0 a2 90 c0 40 80 b0 b6 be a5 a0 db bf
       -6.0674186 6.0176554 -0.35681534 -1.71584
0001f0 2b bb cd 40 a1 5e 41 c1 34 49 38 be fd 20 c2 3f
       6.4290977 -12.085603 -0.17996675 1.5166317
000200 b1 06 11 c1 9c 35 1f 41 96 f5 71 c0 65 4d ab bf
       -9.064134 9.950588 -3.7806144 -1.3382994
000210 26 2a 17 40 49 4e 3a 41 cd 07 bf c0 10 78 43 c1
       2.3619475 11.644113 -5.9697022 -12.216812
000220 b0 ff 93 3e d5 4e e5 c0 1d 53 17 41 89 87 67 40
       0.28906012 -7.165873 9.457791 3.6176474
000230 0c 0d 74 c0 20 45 4d c0 38 2f 5d bf 56 23 c0 40
       -3.8132963 -3.207344 -0.86400175 6.0043135
000240 41 18 b1 3d af 99 14 c1 d8 2d 17 c1 a6 1c 4e 40
       0.08647204 -9.28752 -9.448692 3.2204986
000250 97 e8 32 40 62 2b 7f c1 59 59 b8 c0 14 5a cd 3f
       2.7954462 -15.9480915 -5.7609067 1.6043115
000260 92 a6 5e 40 43 ab df 40 70 5c a7 40 80 bb 58 c1
       3.4789166 6.989656 5.230034 -13.545776
000270 7c c6 e5 c0 fa f3 64 40 5a 02 30 c1 23 83 41 c1
       -7.180479 3.5773911 -11.000574 -12.094516
000280 80 62 84 c0 73 12 b5 bf 68 15 13 c0 24 3d 35 40
       -4.137024 -1.4146255 -2.2981815 2.8318567
000290 9c 1b 62 c0 56 d0 b2 c0 12 fa 18 c1 c1 89 ae 3d
       -3.5329351 -5.5879316 -9.561052 0.08522368
0002a0 02 ea d9 40 b8 04 de 40 14 21 d9 c0 5b 1f 10 c1
       6.8098154 6.938076 -6.785288 -9.007655
0002b0 80 20 76 40 4a d0 23 41 e3 ca 1a c1 9d 3a 1b c1
       3.8457336 10.238352 -9.674533 -9.70181
0002c0 e2 b8 1a c0 1e 7d 9c 3e 43 55 47 c0 a7 ce 31 40
       -2.4175344 0.30564207 -3.114579 2.778238
0002d0 90 4e 4b bf 6e 7d 7d 40 83 ae eb c0 d8 fb 89 c0
       -0.7941675 3.9607806 -7.3650527 -4.3119926
0002e0 88 44 29 c0 05 f5 7c c0 5a ae f8 bf 0f 17 ae 40
       -2.6448078 -3.9524548 -1.9428208 5.440315
0002f0 07 c6 87 c0 34 c8 8f 40 c7 86 0e c1 d9 ab e2 40
       -4.2429233 4.493189 -8.907905 7.0834775
000300 75 7e e5 40 38 4d 90 3f 78 80 13 be 98 3a 54 41
       7.1716866 1.1273565 -0.14404476 13.264305
000310 37 a1 c8 3f 56 28 98 c0 8d a8 19 c0 70 e4 9e c0
       1.5674199 -4.754924 -2.4009125 -4.9653854
000320 a0 0a 23 3f 58 0e 9b be dd ea 1d c1 8d af dc 40
       0.6368809 -0.3028438 -9.86984 6.8964295
000330 b0 9e f0 c0 e9 3b b7 c0 07 87 9d 40 26 68 59 c0
       -7.519371 -5.7260633 4.922733 -3.3969817
000340 9b 19 de bf 03 0a 6b c0 67 45 4e 40 a2 68 dd 40
       -1.7351564 -3.672486 3.222986 6.9190226
000350 72 46 d0 c0 7c ca d5 c0 7f 3e fe 3e bb cf 5d 3c
       -6.5085993 -6.6809673 0.49657056 0.013538296
000360 7d 7b 8c 3f 33 4d e9 bf cb b0 db 3f 65 7b 37 41
       1.0975186 -1.8226684 1.7163328 11.467626
000370 fc 75 86 40 3b 13 4d 41 57 ee b5 c0 29 78 ed 40
       4.2019024 12.817195 -5.685344 7.420918
000380 e8 d2 92 40 6e 59 28 c1 20 11 55 c1 bb be a2 c0
       4.5882454 -10.521833 -13.316681 -5.0857825
000390 53 b7 ea 40 0e 6e 01 c0 1f fd b5 c0 c0 18 5a 40
       7.3348784 -2.0223422 -5.6871486 3.4077606
0003a0 41 3f af bf 80 79 0c 40 64 51 21 41 7f 02 22 c1
       -1.3691179 2.1949158 10.082371 -10.125609
0003b0 24 66 01 c0 e1 38 2c 41 c1 72 32 c0 9a 78 e7 c0
       -2.0218592 10.763886 -2.788254 -7.233472
0003c0 f3 ba 15 c1 db ae 3d 41 13 ff 8b 41 1c 8a 5d c0
       -9.358142 11.855189 17.499548 -3.4615545
0003d0 f9 c8 4d c0 dd c1 98 40 c4 2f dc 40 59 4e 56 3e
       -3.2153914 4.773665 6.880831 0.20928325
0003e0 a4 6f 03 3f f9 29 99 40 c3 2e 2b 41 63 12 df bf
       0.51342225 4.7863736 10.698916 -1.7427486
0003f0 52 68 ae bf 48 8f f7 c0 c2 37 5a c0 e2 22 bb 40
       -1.3625586 -7.7362404 -3.4096532 5.848008
