weights/rupr_not_clustered_syn/checkpoint-8000/pytorch_model.bin (torch, 738091 bytes, 1 tensors)

transformer.wte.prompt_provider.weights f4 [120, 1536]
0	0xc08ab220	-4.334244
1	0x3e671da3	0.225699
2	0xc0a5eafd	-5.184935
3	0xbe801232	-0.25013882
4	0x400515a9	2.079447
5	0x3fc090e9	1.5044223
6	0x401464af	2.3186452
7	0x3fa0ac97	1.255267
8	0xc0471676	-3.110746
9	0xc05e8eaf	-3.4774587
10	0xc0a7dcf0	-5.24572
11	0xbdd8a1ed	-0.1057776
12	0x3f6f9c82	0.93598187
13	0x402f6dad	2.741069
14	0x3fdd4c42	1.7288897
15	0xbf47f414	-0.7810681
16	0xbf89de8b	-1.077104
17	0xc023500e	-2.5517612
18	0x3f79e73e	0.9761847
19	0xbf9e2e24	-1.2357831
20	0x4085fb7d	4.1869493
21	0x3edeec73	0.4353977
22	0x3d041362	0.032245047
23	0xc00b3df1	-2.1756556
24	0xc0514d73	-3.2703521
25	0x3e40a5c5	0.18813236
26	0x3f991005	1.1958014
27	0xc025fd3c	-2.5935812
28	0xbe7d56d2	-0.2474015
29	0x408c4fbe	4.384734
30	0x40b27748	5.5770607
31	0x40588516	3.383123
32	0xbfb98a28	-1.4495287
33	0x3ffee3dd	1.9913288
34	0x407de39b	3.967017
35	0x3f6f86f7	0.93565315
36	0x40cf7def	6.4841228
37	0x3fe24fd1	1.7680608
38	0xc05f2a6a	-3.4869637
39	0x3ff70f47	1.9301537
40	0x3fc4e94e	1.5383699
41	0xc0347315	-2.819524
42	0x40b7e864	5.747118
43	0xc0676d78	-3.6160564
44	0x3f72ab59	0.94792706
45	0xbf836ca5	-1.0267531
46	0x3fe6cc24	1.8031049
47	0x3fb1d059	1.3891708
48	0xbf2ed3c1	-0.6829186
49	0xc058c6bb	-3.3871295
50	0x3f1c3f9a	0.6103455
51	0xbfa9f5b1	-1.3278104
52	0x4084ae9c	4.1463146
53	0xbfa776d3	-1.3083137
54	0x4026cb7a	2.6061692
55	0x405db7f5	3.4643528
56	0x3edb4750	0.42827845
57	0x408e80c1	4.453217
58	0xbf58f888	-0.8475423
59	0x3f17ba00	0.5926819
60	0xbfa5c890	-1.2951832
61	0x405f1277	3.485502
62	0x3f8919d8	1.0711012
63	0x3fe89ca3	1.8172802
64	0x4095caff	4.68103
65	0xbe7e3500	-0.24824905
66	0x3fee6528	1.862462
67	0xbfd37f06	-1.652314
68	0xbff69034	-1.9262757
69	0x3f4dc365	0.80376273
70	0x3e5de17c	0.21668047
71	0xbfdb8a06	-1.7151496
72	0xbe2bcfc1	-0.1677847
73	0x4000e2c7	2.0138414
74	0x3f7400f7	0.9531397
75	0xc08bf1b6	-4.3732557
76	0xc0470524	-3.1096888
77	0x4009fdf9	2.1561263
78	0xc089e55a	-4.309247
79	0xc0863fc9	-4.1952863
80	0x3f63ea53	0.89029425
81	0xc03a51b0	-2.9112358
82	0xbfd5b3dd	-1.6695515
83	0x3e31ffd6	0.1738275
84	0xbe63b22f	-0.2223594
85	0xc083ec03	-4.12256
86	0x40210e9c	2.5165167
87	0x4081febe	4.0623465
88	0xc03c29d9	-2.9400542
89	0x401c9c20	2.447029
90	0x4005794f	2.085529
91	0x3e179a53	0.14804964
92	0x40043245	2.0655682
93	0x4085cae1	4.1810155
94	0x3fc28a11	1.5198385
95	0xc028fe83	-2.6405342
96	0xc023dc6c	-2.5603285
97	0xc02dbe7d	-2.7147515
98	0xbc72d197	-0.014820478
99	0xc06153d3	-3.5207412
100	0x3fb930a3	1.4467968
101	0xbdb221a4	-0.08697823
102	0xc0684715	-3.6293385
103	0xbedd54a4	-0.43228638
104	0xbd390917	-0.045174684
105	0x40533353	3.3000076
106	0xc013bf91	-2.3085673
107	0xbee669be	-0.4500255
108	0x40265812	2.5991254
109	0xc0ad31e4	-5.41234
110	0x3f4cca0a	0.7999579
111	0xbf69de0e	-0.91354454
112	0xbf93d4a0	-1.1549263
113	0x3f788d97	0.9709105
114	0xbff01922	-1.875767
115	0xbf8836b1	-1.064169
116	0x3fec5fd3	1.8466743
117	0x404c5448	3.1926441
118	0xc0a02e1e	-5.0056295
119	0xc04cf58e	-3.2024875
120	0xbfa8cb4e	-1.3187044
121	0x3fab04ac	1.3360801
122	0xbfc2d0ca	-1.5219967
123	0x400c38c1	2.190964
124	0xbea45973	-0.32099494
125	0xc0fb6f6e	-7.8573523
126	0xc0724be4	-3.785882
127	0x40102fa2	2.2529073
128	0xc07c3846	-3.9409347
129	0x40377af7	2.8668802
130	0xbfe848dc	-1.8147235
131	0x401892cf	2.3839605
132	0x3fbf597c	1.4949183
133	0xbdf93f7c	-0.12170312
134	0xc03226af	-2.783611
135	0xc00794f7	-2.118467
136	0x40d729f4	6.723871
137	0x3f869e7e	1.0517118
138	0x3fdafac9	1.7107784
139	0x3f91de76	1.1396015
140	0xc03bfb81	-2.9372256
141	0x3f806839	1.0031806
142	0xbeac5a61	-0.33662704
143	0x3fdbc41c	1.7169223
144	0x3dd79cd5	0.1052796
145	0xc049185a	-3.1421113
146	0x3e19914a	0.1499683
147	0xc00de082	-2.2168279
148	0xbf8450fd	-1.0337216
149	0xc0549976	-3.3218665
150	0xbfb56455	-1.4171244
151	0x3f9d6563	1.2296566
152	0x4054d01c	3.325202
153	0x40900f3f	4.501861
154	0x4025d5dc	2.591178
155	0xc00211ef	-2.0323446
156	0x3f33b858	0.7020316
157	0x3ea0c3aa	0.3139928
158	0x3fca7f97	1.5820187
159	0xc0216b8b	-2.522189
160	0xc02ba9bc	-2.6822348
161	0x3f2e1c3a	0.6801182
162	0x40074fee	2.1142535
163	0x4071fa60	3.7809067
164	0xbf6b730c	-0.9197242
165	0xc0b18333	-5.5472655
166	0xc0872222	-4.2229166
167	0x4015dbcb	2.34154
168	0x3fc6aa9c	1.5520816
169	0x3ff3410b	1.9004225
170	0x3f1e16db	0.61753625
171	0xc0b0f823	-5.53029
172	0xc000fd71	-2.0154688
173	0x40b30b43	5.5951247
174	0xc07e0639	-3.9691298
175	0x3fe3124e	1.7739961
176	0xbf679eb9	-0.90476567
177	0x3ffcdc99	1.9754821
178	0xbfac9028	-1.3481493
179	0x3e15c03c	0.14624113
180	0x401f6ce3	2.491021
181	0xbf964aae	-1.174154
182	0xbf9d79d9	-1.230281
183	0x3f0b039c	0.5430238
184	0xbff90e92	-1.9457572
185	0x3dd19ce8	0.102350056
186	0x408d664f	4.418739
187	0xbf9bdc9f	-1.2176703
188	0xbeaaceb2	-0.3336082
189	0x3f8f73ef	1.1207255
190	0xbf9ff635	-1.2497011
191	0x3fe5b4d7	1.7945813
192	0x40f0c015	7.5234475
193	0x402c3e46	2.6913009
194	0xc05b18cc	-3.4233885
195	0x4087cbc6	4.2436247
196	0x3f90e4f6	1.1319873
197	0xbf6b287c	-0.9185865
198	0x3e664fe7	0.22491418
199	0xc02b83d0	-2.6799202
200	0x401c34e8	2.4407291
201	0x3e12523f	0.14289187
202	0x3e4edc5a	0.20201245
203	0xbe723845	-0.23654278
204	0xc05340b7	-3.3008249
205	0xbf1ec019	-0.6201187
206	0x3f4262eb	0.75932187
207	0x3e8c6cf7	0.27426884
208	0xbe7acdb3	-0.2449253
209	0xbfc07d25	-1.5038191
210	0x3ec2e0cb	0.38062128
211	0x3e5cfe48	0.21581376
212	0x3f3ba1d3	0.732938
213	0xbfe1d991	-1.7644521
214	0x403cc8f7	2.949766
215	0xbf0ae0d5	-0.54249316
216	0x4028d0f5	2.6377537
217	0x405a5cde	3.4119182
218	0x401f7aa0	2.4918594
219	0x408f81dc	4.484602
220	0x3e1e774e	0.15475199
221	0x3ef966c5	0.4871122
222	0xbe264109	-0.16235746
223	0x40421db2	3.0330625
224	0x40487717	3.1322687
225	0xbe2edd64	-0.17076641
226	0xc006e47c	-2.1076956
227	0xbfc5d7fe	-1.545654
228	0x40137262	2.3038564
229	0xbf771d08	-0.96528673
230	0xc0658097	-3.5859735
231	0x3fd23683	1.6422886
232	0xbf653f78	-0.8954997
233	0xc000eb9b	-2.0143802
234	0x3f436948	0.7633252
235	0xbfd70954	-1.6799722
236	0x407d6c3b	3.9597309
237	0x40186345	2.381059
238	0x3fcc6520	1.5968361
239	0x3f2919b3	0.6605484
240	0xbfaf7c17	-1.3709744
241	0x4052eefb	3.2958362
242	0x406c1563	3.6888053
243	0xbfca4581	-1.5802461
244	0xc00e6b52	-2.2253003
245	0xbf9dca6a	-1.2327397
246	0x3d58fb38	0.052973956
247	0x405b83c3	3.429917
248	0xc0235ffd	-2.5527337
249	0x40218baa	2.5241494
250	0x40a2a3b7	5.0824847
251	0xc01ac222	-2.418099
252	0x40227245	2.5382245
253	0x40a23425	5.0688653
254	0x3f6384c1	0.8887444
255	0x406c2502	3.6897588
