weights/rupr_not_clustered_syn/checkpoint-9000/pytorch_model.bin (torch, 738091 bytes, 1 tensors)

transformer.wte.prompt_provider.weights f4 [120, 1536]
0	0xc08f0d6a	-4.4703875
1	0xbe69e1c4	-0.22840029
2	0xc09bdf79	-4.8710294
3	0xbeaa386e	-0.33246177
4	0x400214a0	2.0325089
5	0x4004907c	2.0713186
6	0x4022766e	2.5384784
7	0x3f9f0237	1.2422551
8	0xc04f9c45	-3.243913
9	0xc057105f	-3.3603742
10	0xc0b1eb46	-5.55997
11	0xbea73954	-0.32660925
12	0x3ed8b1ba	0.42323095
13	0x402fde24	2.7479334
14	0x40047564	2.069665
15	0xbf60214f	-0.87550825
16	0xbedbf347	-0.42959043
17	0xc0123635	-2.2845585
18	0x3fa6e7a6	1.3039443
19	0xbee2d5b6	-0.44303674
20	0x408549fc	4.1652813
21	0x3effbfa8	0.4995091
22	0xbdb09189	-0.08621509
23	0xc014ea64	-2.326806
24	0xc04f15f7	-3.2357156
25	0x3eca431e	0.3950433
26	0x3fb547db	1.4162554
27	0xc0247376	-2.5695472
28	0xbe4b1b3d	-0.1983461
29	0x40911f0e	4.535041
30	0x40ae016b	5.437673
31	0x40539ce5	3.306451
32	0xbfcf06fe	-1.6174009
33	0x40085db4	2.1307192
34	0x408e9b3d	4.45645
35	0x3f9954dd	1.1979023
36	0x40cff4e3	6.4986434
37	0x3fe8ff35	1.8202883
38	0xc05deb18	-3.467474
39	0x400164ae	2.02177
40	0x3fd4964f	1.660837
41	0xc012487a	-2.2856736
42	0x40b9b958	5.803875
43	0xc07a6967	-3.9126832
44	0x3faa331b	1.3296846
45	0xbf936b45	-1.1517111
46	0x3fbbbb79	1.4666587
47	0x3fdaf812	1.7106955
48	0xbf4c2098	-0.79737234
49	0xc05611ce	-3.3448367
50	0x3f64f5e8	0.89437723
51	0xbf8dc645	-1.1076132
52	0x407d313a	3.9561296
53	0xbf4f40a8	-0.8095803
54	0x400fad42	2.2449498
55	0x4062032b	3.5314434
56	0x3cc122a5	0.02357609
57	0x4071a2d1	3.7755625
58	0xbf35fc8d	-0.71088487
59	0x3f0e2a6c	0.5553348
60	0xbf9afe8f	-1.2108935
61	0x406c09f3	3.6881073
62	0x3f1c7adf	0.61124986
63	0x400baaec	2.1823072
64	0x40ab319c	5.349806
65	0xbe34face	-0.176738
66	0x3fc066c2	1.5031359
67	0xbfd0a404	-1.6300054
68	0xbfd38467	-1.6524781
69	0x3f0b9f4d	0.5453995
70	0xbe12797b	-0.14304154
71	0xbfe2b8dd	-1.7712666
72	0xbefaf7be	-0.49017137
73	0x3fe249b8	1.7678747
74	0x3f8d85cc	1.1056457
75	0xc0901850	-4.502968
76	0xc0501fce	-3.2519412
77	0x400554d8	2.0833035
78	0xc093dd2d	-4.620749
79	0xc093f8db	-4.624128
80	0x3f7858c0	0.9701042
81	0xc04344a6	-3.051065
82	0xbfd4e4bd	-1.6632305
83	0x3da59396	0.080847904
84	0x3d77aaf2	0.06046576
85	0xc082e751	-4.090737
86	0x402bcb5a	2.6842866
87	0x408d1052	4.408242
88	0xc040e5b7	-3.0140207
89	0x401ada33	2.4195678
90	0x4008740b	2.1320827
91	0x3e794a74	0.24344808
92	0x4019bbdd	2.4020913
93	0x40928774	4.579035
94	0x3fd9c69a	1.7013733
95	0xc0362368	-2.845911
96	0xc031c438	-2.7776012
97	0xc0342440	-2.8147125
98	0xbe36e5bc	-0.17861074
99	0xc08016c5	-4.0027795
100	0x3f82b4d4	1.0211434
101	0xbe475cbf	-0.19468974
102	0xc04fdb9a	-3.2477784
103	0xbf132e47	-0.5749249
104	0xbf5f5084	-0.8723223
105	0x4044649e	3.0686412
106	0xc02eabfd	-2.7292473
107	0xbeeb2f36	-0.45934457
108	0x40226732	2.5375485
109	0xc0aab432	-5.3344965
110	0x3fc1b8e5	1.513455
111	0xbf893a9b	-1.072101
112	0xbf93810a	-1.1523755
113	0x3f8954bc	1.0728984
114	0xc0243188	-2.5655231
115	0xbfa26872	-1.2688124
116	0x401059e3	2.2554862
117	0x4045045a	3.0783906
118	0xc0a2d16c	-5.088064
119	0xc03b0fc4	-2.9228373
120	0xbf6a605d	-0.9155329
121	0x3fb28bbf	1.3948897
122	0xbfc06103	-1.5029606
123	0x3fdf4b34	1.7444825
124	0xbebbab6c	-0.36654222
125	0xc0f5326c	-7.662405
126	0xc06de9a7	-3.717386
127	0x40273a6b	2.6129405
128	0xc08ccd91	-4.4000936
129	0x4033bea6	2.8085113
130	0xbff35e3f	-1.9013137
131	0x3fff8c1d	1.9964634
132	0x3f84256e	1.0323923
133	0x3e601409	0.21882643
134	0xc044533a	-3.0675797
135	0xc028eb1b	-2.6393497
136	0x40d12583	6.535829
137	0x3f96d236	1.1782901
138	0x4008da34	2.138318
139	0x3fb782c1	1.4336778
140	0xc056c496	-3.3557487
141	0x3fa53602	1.2907107
142	0xbef1db9c	-0.4723786
143	0x400f6d1d	2.2410347
144	0x3ecc3db4	0.39890826
145	0xc072c528	-3.7932835
146	0xbf01c1a4	-0.506861
147	0xc00d237d	-2.205291
148	0xbf09a6e6	-0.5377029
149	0xc0670915	-3.6099293
150	0xbfa67e1e	-1.3007238
151	0x3f98a767	1.1926087
152	0x4069cf95	3.6532948
153	0x408c1708	4.3778114
154	0x402a363f	2.659561
155	0xc0188843	-2.3833168
156	0x3f70c672	0.94052804
157	0x3ea54204	0.32276928
158	0x3fd8321f	1.6890296
159	0xc02cf29b	-2.7023075
160	0xc0284dca	-2.6297479
161	0x3f7260e8	0.9467912
162	0x400721d0	2.1114388
163	0x4056b64d	3.3548768
164	0xbf934008	-1.1503916
165	0xc0a63c50	-5.1948624
166	0xc079e33f	-3.904495
167	0x401c8904	2.4458628
168	0x3fd02016	1.6259792
169	0x401edccf	2.482227
170	0x3f608d03	0.87715167
171	0xc0b7b3c0	-5.740692
172	0xc021f1ca	-2.5303826
173	0x40b54b86	5.665469
174	0xc0917f21	-4.5467687
175	0x3fd6ef4b	1.6791776
176	0xbf269928	-0.6507745
177	0x3fc3aaa6	1.5286453
178	0xbfee29e9	-1.860654
179	0x3ec7c504	0.39017498
180	0x403d27bc	2.9555502
181	0xbfa0f400	-1.2574463
182	0xbfb4878b	-1.4103864
183	0x3f250300	0.644577
184	0xbfff54cf	-1.9947757
185	0xbe59f67b	-0.21285431
186	0x40841e8c	4.128729
187	0xbfaf140f	-1.3677996
188	0xbf1841fe	-0.59475696
189	0x3f699614	0.91244626
190	0xbfd7e6cc	-1.6867309
191	0x3f9124c7	1.1339349
192	0x40ead616	7.3386335
193	0x4049e292	3.1544538
194	0xc0627d3f	-3.5388944
195	0x4084c689	4.1492352
196	0x3f4ec0f9	0.807632
197	0xbf91d4ee	-1.1393106
198	0x3ee1a17e	0.4406852
199	0xc033350f	-2.8001134
200	0x40280597	2.6253412
201	0x3e6ae90e	0.22940466
202	0xbeb81529	-0.35953644
203	0xbee03890	-0.43793154
204	0xc03e6355	-2.9748127
205	0xbf6faf72	-0.93627083
206	0x3f707ef5	0.9394372
207	0x3e56d97b	0.209814
208	0xbdb8aebb	-0.09017702
209	0xbfc15868	-1.5105104
210	0x3f30ab11	0.69011027
211	0x3ee6c85d	0.4507474
212	0x3f3b7743	0.73228854
213	0xbfe28084	-1.769547
214	0x402cd067	2.7002199
215	0xbf7905f3	-0.972747
216	0x4031fd86	2.7810988
217	0x406df2a7	3.7179353
218	0x402e09a2	2.719338
219	0x408e9ef0	4.4569016
220	0x3ec20611	0.37895253
221	0x3f0efe12	0.5585643
222	0x3e6ccfe6	0.23126182
223	0x404c8bc0	3.1960297
224	0x40689dd5	3.6346333
225	0xbe89e967	-0.26935884
226	0xc0195546	-2.3958297
227	0xbfcd26fc	-1.6027522
228	0x40010f06	2.016542
229	0xbf987dc5	-1.1913382
230	0xc0666b32	-3.6002927
231	0x3faeca7c	1.3655543
232	0xbf1cb550	-0.6121416
233	0xbffaef64	-1.9604306
234	0x3f5a64d1	0.85310084
235	0xbffa0df9	-1.9535514
236	0x407d4d6a	3.95785
237	0x403c6095	2.943395
238	0x3fe430f9	1.7827445
239	0x3f04bc04	0.5184939
240	0xbfec25f0	-1.8449078
241	0x406384e9	3.5549872
242	0x40834223	4.1018233
243	0xbfa081d1	-1.2539617
244	0xc01da8da	-2.463431
245	0xbf3f2314	-0.746629
246	0x3f09be57	0.5380606
247	0x404cb59b	3.1985843
248	0xc00598f9	-2.0874617
249	0x40285cee	2.630672
250	0x40a8e2a7	5.2776675
251	0xc01e6e6a	-2.4754891
252	0x4043a2d9	3.0568144
253	0x40ad275c	5.4110546
254	0x3f2e7563	0.6814787
255	0x40608fd1	3.5087779
